Assignment 2/part2-pytorch/checkpoints/vanillacnn.pth (torch, 237480 bytes, 4 tensors)

conv_layer.weight f4 [32, 3, 7, 7]
0	0x39a6bf25	0.000318044
1	0x3d12c6dc	0.03583418
2	0x3db19962	0.086718336
3	0x3dccabf9	0.09993739
4	0xbc81950d	-0.015818143
5	0xbc82ba5e	-0.015958007
6	0x3d66a2ea	0.05630771
7	0x3c83c2aa	0.016084034
8	0x3d7d7c7f	0.061886307
9	0x3ac4e261	0.001502108
10	0x3d6593c8	0.05604914
11	0x3abb5055	0.0014290909
12	0x3dbb6a08	0.09151083
13	0x3d8657e9	0.06559736
14	0x3be869cb	0.0070926896
15	0x3cbf9657	0.023387117
16	0x3d557544	0.052113786
17	0x3bbf1c67	0.0058322432
18	0x3d45b6d2	0.048270054
19	0xbd45d489	-0.048298392
20	0xbcea96ee	-0.028636422
21	0x3d10f27c	0.0353875
22	0x3da8d1b4	0.08243123
23	0x3d848928	0.06471473
24	0x3d0bb2e8	0.034106165
25	0xbc277f5a	-0.010223234
26	0xbd66a328	-0.05630794
27	0x3d92a840	0.071609974
28	0xbd0d9436	-0.034565173
29	0xbd973093	-0.07382312
30	0x3d19c7ad	0.03754394
31	0xbd9a0baa	-0.07521756
32	0x3d8392a6	0.06424455
33	0x3be81328	0.0070823617
34	0xbd733009	-0.05937198
35	0x3d2154ac	0.03938739
36	0x3d14b265	0.036302943
37	0x3dac6a93	0.08418765
38	0xbd9702ca	-0.07373579
39	0xbd6def6c	-0.05808966
40	0xbd63c646	-0.05560901
41	0xbd981ab7	-0.074269705
42	0x3cfc5354	0.030801453
43	0xbd455c23	-0.04818357
44	0x3da0e3ec	0.07855973
45	0x3db0bbb7	0.08629554
46	0xbbc28b6d	-0.005937031
47	0xbd006ae7	-0.03135195
48	0xbd47ec1c	-0.048809156
49	0xbd06dd39	-0.032925818
50	0xbccf1c0c	-0.025281928
51	0xbda4f29b	-0.08054086
52	0xbd9726e0	-0.07380462
53	0xbb8e3e8e	-0.004340953
54	0x3d671919	0.05642042
55	0xbd7c3953	-0.061578106
56	0x3c2cfce7	0.0105583435
57	0x3d6d082a	0.057869114
58	0x3d06f2cd	0.032946397
59	0xbda541b5	-0.08069173
60	0x3d084c0f	0.03327566
61	0xbd87ebf7	-0.066368036
62	0xbc08c8ea	-0.008348683
63	0xbd873268	-0.06601411
64	0xbd2fb9db	-0.042901855
65	0x3d59773f	0.053092238
66	0xbc504027	-0.012710608
67	0xbd8c3e4e	-0.06847821
68	0xbd3deaef	-0.04636663
69	0xbd485177	-0.048905816
70	0xbdb6740f	-0.08908855
71	0x3ce0ab1a	0.027425338
72	0xbd2a293c	-0.04154323
73	0x3d830efe	0.06399344
74	0xbd0da12b	-0.03457753
75	0xbd138175	-0.03601213
76	0x3d88140a	0.06644447
77	0xbcb518c5	-0.022106538
78	0xbd27647b	-0.04086731
79	0xbd0ea467	-0.034824755
80	0xbdb7d77f	-0.089766495
81	0xbd252bf0	-0.040325105
82	0xbd0a429d	-0.033754934
83	0xbb918324	-0.004440682
84	0xbd81a5de	-0.06330465
85	0xbda90ad8	-0.082540214
86	0xbc49b70e	-0.01231171
87	0xbd59f9c5	-0.053216714
88	0xbbaf3da1	-0.005347923
89	0xbd0c58df	-0.03426444
90	0xbdc29587	-0.09501176
91	0x3c33faab	0.010985057
92	0x3d369880	0.04457903
93	0xbd4c320f	-0.049852427
94	0xbc2a0150	-0.0103762895
95	0xbd886317	-0.06659525
96	0xbd512551	-0.05106098
97	0xbc587c35	-0.013213207
98	0x3d63cab0	0.05561322
99	0xbd447fc5	-0.047973413
100	0x3ca727e5	0.020404765
101	0xbd54a078	-0.051910847
102	0xbd3617ff	-0.04445648
103	0x3d8aba63	0.06773832
104	0xbd2b303c	-0.041794047
105	0xbc1181e0	-0.008881062
106	0x3d8df135	0.06930772
107	0xbc81aaa8	-0.015828446
108	0x3b7a66cf	0.0038208251
109	0xbd2f96f6	-0.042868577
110	0x3ced1885	0.028942356
111	0xbc0b90d4	-0.008518416
112	0x3baa9e29	0.0052068424
113	0x3cd6d68f	0.026225356
114	0xbd4aed86	-0.049542926
115	0xbd9e4948	-0.07728821
116	0x3d885dd0	0.06658518
117	0x3d6a4a5e	0.05719983
118	0x3d262473	0.040562104
119	0x3d941e9e	0.07232402
120	0xbd67b4e3	-0.05656899
121	0xbd87c806	-0.06629948
122	0xbcf02372	-0.029313777
123	0x3d84b891	0.06480516
124	0x3cd90754	0.026492752
125	0xbcc1d72c	-0.023662172
126	0x3b791472	0.003800657
127	0xbbafd12b	-0.005365511
128	0xbc30dee1	-0.010795326
129	0x3d2a2355	0.0415376
130	0xbd862e33	-0.065517806
131	0xbcdda8b4	-0.027057983
132	0x3d46bb9c	0.048518762
133	0x3d83b436	0.06430857
134	0x3d50b074	0.05094953
135	0x3d7b4749	0.06134728
136	0x3da9db1e	0.082937464
137	0xbc78da29	-0.015188732
138	0x3c1983e2	0.009369822
139	0x3d07de7c	0.033171162
140	0x3d025aaf	0.031824764
141	0xbd6ac756	-0.057319008
142	0xbd9d6d5f	-0.076868765
143	0x3d84116d	0.06448636
144	0x3ccb6d87	0.0248325
145	0xbd7c2833	-0.061561774
146	0x3cb1645d	0.021654302
147	0xbc1ae42b	-0.009453814
148	0xbd81ab4a	-0.06331499
149	0x38313146	4.2245978e-05
150	0xbc8b00a3	-0.016968077
151	0x3be00829	0.0068369103
152	0x3baeb4ad	0.005331597
153	0x3d90d176	0.070712015
154	0xbaf4bac6	-0.0018671385
155	0x3c76e74e	0.015069796
156	0x3c476392	0.0121697355
157	0xbb9b1804	-0.0047330875
158	0xbd6c41a3	-0.057679784
159	0xbb6641f2	-0.0035134521
160	0x3d0fe30a	0.03512863
161	0xbd8c05c2	-0.06837036
162	0xbd89700a	-0.06710823
163	0x3d321cb3	0.0434844
164	0x3d55a596	0.05215987
165	0x3c06face	0.008238507
166	0xbc8d38d2	-0.017239008
167	0x3dad5eb1	0.084653266
168	0xbcc9a6e5	-0.024615714
169	0x3acde2ca	0.0015707847
170	0x3d78e848	0.060768396
171	0xbcd41e12	-0.025893245
172	0x3d3f4495	0.046696264
173	0x3cd434e4	0.025904126
174	0x3d95e86e	0.07319723
175	0x3d14b8a5	0.036308903
176	0xbd123bb6	-0.035701476
177	0xbd37af8b	-0.044845145
178	0x3d93804f	0.07202207
179	0xbd8b45fd	-0.068004586
180	0xbcd74f16	-0.026282828
181	0xbd829f95	-0.06378094
182	0xbd96f325	-0.07370595
183	0x3d87f097	0.06637686
184	0xbd29155e	-0.041280143
185	0x3d196280	0.037447453
186	0xbd28513a	-0.04109309
187	0xbd4ed662	-0.05049742
188	0xbd037564	-0.032094374
189	0xbd6eda2b	-0.05831353
190	0xbc319eea	-0.010841111
191	0xbd21107e	-0.03932237
192	0x3da3da20	0.080005884
193	0x3c2a302c	0.010387462
194	0x3d176638	0.036962718
195	0x3d2fc7de	0.042915218
196	0xbda80688	-0.08204371
197	0x3d6bf5b4	0.057607368
198	0x3d12eaff	0.03586864
199	0xbd9a045e	-0.07520364
200	0xbdafc4be	-0.085824475
201	0xbd6e9f51	-0.058257405
202	0xbdaecee2	-0.085355535
203	0xbc6fbbb3	-0.014632153
204	0xbc9d9a27	-0.019238545
205	0xbd4e27e2	-0.050331004
206	0x3cb94714	0.0226169
207	0x3d29d2fd	0.04146098
208	0x3be69212	0.007036456
209	0x3c6cf6c9	0.014463135
210	0x3c46b92e	0.012129111
211	0x3c07f83d	0.008298931
212	0xbd157f80	-0.036498547
213	0xbd37c7b1	-0.044868175
214	0xbd9a4457	-0.07532566
215	0xbd1c9e28	-0.038236767
216	0x3ac9a9d5	0.0015385697
217	0x3d04219c	0.032258615
218	0xbc7d29ea	-0.015451888
219	0x3d10adbb	0.035321932
220	0xbd5e6359	-0.054293964
221	0x3d6aa5b2	0.057286926
222	0xbd6205de	-0.055181377
223	0x3d1cdf5d	0.038298953
224	0xbd041dd7	-0.03225502
225	0x3ccfa15d	0.025345499
226	0xbd13d026	-0.036087178
227	0x3dab57c5	0.0836635
228	0x3d9fd55d	0.07804368
229	0xbbe5815b	-0.0070039458
230	0xbce1ce1a	-0.027564097
231	0x3d851bac	0.064994186
232	0x3d29bc11	0.04143912
233	0xbd8a9938	-0.067675054
234	0xbd964cae	-0.07338844
235	0xbd94750f	-0.0724889
236	0x3d1f610b	0.038910907
237	0xbd7dbade	-0.06194579
238	0xbbbe7a15	-0.005812893
239	0x3d95e98d	0.07319937
240	0xbd2c8545	-0.042119283
241	0x3d5236c7	0.05132177
242	0xbd020132	-0.03173942
243	0xbd1b018d	-0.037843276
244	0xbc527262	-0.012844654
245	0x3d895f9e	0.06707691
246	0xbd809566	-0.062784955
247	0xbca11d2f	-0.019667236
248	0xbd5e7f7c	-0.054320797
249	0x3cfe37ee	0.031032529
250	0xbd30c466	-0.04315605
251	0xbd798ed0	-0.060927212
252	0x3d42aab3	0.047526073
253	0xbd4f6c9d	-0.05064069
254	0xbce29e35	-0.02766333
255	0xbd9bb45a	-0.07602759

conv_layer.bias f4 [32]
0	0x3b967d71	0.0045925905
1	0x3c4ee445	0.012627666
2	0x3d7eff68	0.062255293
3	0xbd12afe5	-0.035812277
4	0xbaed65e2	-0.0018112028
5	0xbd93b317	-0.07211893
6	0xbd5a0927	-0.053231385
7	0x3d885d15	0.06658379
8	0xbdb98175	-0.09057895
9	0xbd9e5702	-0.07731439
10	0xbd928a60	-0.07155299
11	0xba390152	-0.00070573867
12	0x3d846b31	0.06465758
13	0xbd6be23c	-0.0575888
14	0xbd8f4255	-0.06995074
15	0x3d0e768d	0.034781028
16	0x3d7258ff	0.059166905
17	0xbb0d4477	-0.00215557
18	0xbd402300	-0.04690838
19	0x3d852a93	0.06502261
20	0x3c275a71	0.010214434
21	0x3d94cfa1	0.072661646
22	0x3d80c2b0	0.06287134
23	0xbc420c26	-0.011843717
24	0x3d86e6b6	0.06586973
25	0xbd60b408	-0.05485919
26	0xbc8cfdb3	-0.017210817
27	0x3da0f78c	0.07859716
28	0xbad3e6b6	-0.001616678
29	0x3d34b82f	0.044120964
30	0xbcf9b1ba	-0.030480254
31	0xbc7ee3e4	-0.015557263

fc1.weight f4 [10, 5408]
0	0xbc628e53	-0.013827878
1	0x3b4b3675	0.00310078
2	0x39a36ff9	0.0003117321
3	0xbc568400	-0.013092995
4	0xbb4ef2e7	-0.0031577887
5	0xbb5e0160	-0.0033875331
6	0xbba4b797	-0.0050267684
7	0x3b019941	0.0019775184
8	0xbb4b9e6c	-0.0031069769
9	0xbc66cb76	-0.014086595
10	0x3b8e285b	0.004338307
11	0x3c00104a	0.007816384
12	0xbb70e8da	-0.0036759884
13	0x3be741b5	0.0070573934
14	0xbc396631	-0.011315868
15	0x3c5cb6f3	0.013471353
16	0x3ba92e72	0.0051630074
17	0xbc085a0a	-0.008322248
18	0x3c202012	0.009773271
19	0xbbddb078	-0.0067654215
20	0x3c04305f	0.008068173
21	0xbb4f89e4	-0.0031667883
22	0xbbe95377	-0.0071205455
23	0xbac25c7b	-0.0014828587
24	0xbb7d6f33	-0.0038671016
25	0xbb2e5ca3	-0.0026605509
26	0xbbe7c87f	-0.0070734615
27	0xb9e5012f	-0.00043679166
28	0x3988eb2f	0.00026115167
29	0x3b5ac2b6	0.0033380217
30	0x3a02d12e	0.00049902766
31	0xbc091e30	-0.008369014
32	0xbc298cd8	-0.010348521
33	0xbb1657d6	-0.0022940538
34	0xbc1543fd	-0.009110448
35	0x3a9be04b	0.0011892406
36	0xbc4e0fc0	-0.012576997
37	0xbc4d9bb2	-0.012549328
38	0x3bfd7e00	0.0077359676
39	0xbab9d0cb	-0.0014176605
40	0xbb01a634	-0.0019782903
41	0x3c83673e	0.01604044
42	0xbad1939f	-0.0015989429
43	0xbc2072ed	-0.009793025
44	0x3c2beac7	0.010492987
45	0x3c37ad08	0.011210687
46	0x3bb7826d	0.0056002648
47	0x3c24d75e	0.010061113
48	0xbbbd380c	-0.0057745036
49	0x3a159a13	0.0005706858
50	0xbbad4cac	-0.005288681
51	0x3c380f21	0.011234076
52	0xbc0d8ec6	-0.008639997
53	0x3c18d302	0.009327652
54	0x3b315355	0.0027057726
55	0x3b558016	0.0032577566
56	0xbbe066d0	-0.0068481937
57	0xbc0b4384	-0.008499984
58	0x3c56cb11	0.013109938
59	0x3ac4f0a7	0.0015025333
60	0xbc040a7b	-0.008059139
61	0x3a4f4074	0.00079060276
62	0xbbaaaae0	-0.005208358
63	0xbbd8a526	-0.006611484
64	0x3c1e1ead	0.009650868
65	0xbc3d5cd9	-0.011557781
66	0x3bcd1d00	0.0062595606
67	0x3b57ffec	0.0032958938
68	0x3c2392fe	0.009983776
69	0xbc3b0fdc	-0.011417355
70	0xba18d411	-0.000582994
71	0x3c592e6d	0.013255698
72	0x3c581f15	0.013191004
73	0x3c4eb493	0.012616294
74	0x3ab84f67	0.001406175
75	0xbc146a39	-0.009058529
76	0x3c1856f4	0.009298075
77	0x3bc9abd6	0.0061545176
78	0x3c090b2c	0.00836448
79	0xbb7c8c6e	-0.003853585
80	0x3b890735	0.0041817673
81	0x3c395e57	0.011313996
82	0xbaf69dc4	-0.0018815328
83	0xbc0cdff1	-0.008598314
84	0xbc44e0e5	-0.01201651
85	0xbbc66b17	-0.0060552466
86	0xbc657784	-0.0140055455
87	0x3b93a37b	0.0045055724
88	0x3c305224	0.010761771
89	0x3c06d672	0.008229839
90	0x3b0300e0	0.0019989535
91	0x397d3023	0.00024145893
92	0xbc24f4bc	-0.010068115
93	0x3b4d3d89	0.0031317195
94	0xba55b7f1	-0.00081527146
95	0xb7e74f12	-2.7574166e-05
96	0x3b90c5fe	0.0044181338
97	0xbb8eb31d	-0.004354848
98	0x3c0fad5c	0.008769359
99	0xbc21af98	-0.009868525
100	0x3a749d7a	0.0009331327
101	0xb82abbae	-4.070595e-05
102	0x3acfa0f9	0.001584082
103	0x3ae1120d	0.0017171517
104	0xbc41d26e	-0.0118299555
105	0x3c239d28	0.009986199
106	0x3b699f38	0.003564788
107	0xbbf70db3	-0.007539475
108	0xbbfb53f0	-0.0076699182
109	0xbb33d397	-0.002743935
110	0x3b6125c4	0.0034354785
111	0x3c2c3aca	0.010512063
112	0xbc3f7fa5	-0.011688148
113	0xbc5d9b2f	-0.013525768
114	0x3c0ff6d8	0.0087868795
115	0x3c1a8225	0.009430443
116	0x3c58e15e	0.0132373255
117	0x3c4e287f	0.012582897
118	0xbb54aabf	-0.0032450405
119	0x3a444580	0.0007487163
120	0x3c198627	0.009370363
121	0xbc471d41	-0.012152971
122	0xbc42df0a	-0.011893997
123	0x3aadf831	0.0013272819
124	0xbbe9f765	-0.0071400874
125	0xbb9c5d87	-0.0047718915
126	0xbc1217ec	-0.008916836
127	0xbc06de4a	-0.008231709
128	0xbc25a5d5	-0.010110338
129	0x3c1a4ad5	0.009417255
130	0xbc1d3cb3	-0.009596991
131	0xba7b6de5	-0.00095912657
132	0xbc6e54b8	-0.014546566
133	0xbc2e1293	-0.010624546
134	0xbc15d55b	-0.009145106
135	0x3b01f325	0.0019828763
136	0xbbc2d36e	-0.0059456145
137	0x3b94ea45	0.0045445287
138	0x3baa028d	0.0051882924
139	0xbb7b8108	-0.003837647
140	0x3c07abeb	0.0082807345
141	0x3c3cb5c5	0.011517947
142	0x3b68ec1b	0.003554112
143	0x3bc4f3a5	0.00601049
144	0x3c2c8b38	0.010531239
145	0x3abc1b7e	0.0014351455
146	0xbc3ccc7d	-0.011523363
147	0xbc309e10	-0.010779873
148	0xbba111c0	-0.004915446
149	0xbab7296e	-0.0013974139
150	0x3bffe78c	0.007809585
151	0x3607db46	2.0244202e-06
152	0x3bb0f457	0.0054002213
153	0x3b89113f	0.004182964
154	0x3bc0cf0f	0.0058840583
155	0xbb017c39	-0.001975788
156	0x3c29fa48	0.010374613
157	0xbb37c023	-0.0028038106
158	0xbc2e94b0	-0.010655567
159	0x3c49e2e8	0.012322165
160	0xb9a8f5c0	-0.00032226555
161	0xbaeaea39	-0.0017922587
162	0x3c155d7f	0.0091165295
163	0xbc574db8	-0.013141088
164	0x3b6a7a5f	0.0035778505
165	0x3aeb0b0a	0.0017932367
166	0x3c203904	0.009779219
167	0x3b6c6c30	0.0036075227
168	0x3bd21818	0.0064115636
169	0x3b33b68e	0.0027422043
170	0xbc6e85f4	-0.014558304
171	0x3b981a6b	0.004641821
172	0x391e1e97	0.0001507945
173	0x3bac04d6	0.0052496
174	0xbc6107d5	-0.013734777
175	0x3bb214f7	0.005434628
176	0x3bd7d991	0.0065872152
177	0xbc32a986	-0.010904675
178	0xbc802b7c	-0.015645735
179	0x3c084575	0.008317341
180	0x3c087c66	0.00833044
181	0xbc44484a	-0.011980126
182	0xbb7fc53e	-0.0039027478
183	0x3b2e5d55	0.0026605923
184	0xbc13397a	-0.008985871
185	0x3b1154d9	0.0022175817
186	0x3b245af9	0.0025078638
187	0x3c3b9ec0	0.011451423
188	0xbb8573cc	-0.004072642
189	0xbc498c81	-0.012301565
190	0xbc195081	-0.0093575725
191	0xbba4fe91	-0.0050352295
192	0x3bb88d77	0.0056320983
193	0x3c215cb8	0.009848766
194	0xbb68ceb9	-0.0035523607
195	0xbb3d5aa1	-0.002889313
196	0xbc5509d3	-0.013002831
197	0x3ac1d143	0.0014787096
198	0xbc0bf75d	-0.008542863
199	0xbaaa232c	-0.0012980453
200	0xbb17075e	-0.0023045163
201	0xbc48d1d6	-0.01225706
202	0xb96bb72b	-0.00022479582
203	0x3958dff7	0.00020682799
204	0x3bf32b45	0.0074209296
205	0x3ba9775e	0.0051717004
206	0xbc030415	-0.007996579
207	0xbb4aabce	-0.0030925157
208	0x3b3ac3ae	0.0028497982
209	0x3b80adfd	0.003926991
210	0xbc46dea7	-0.012138045
211	0xbb9f67f1	-0.0048646857
212	0x3abd3a52	0.0014436936
213	0x3c08d9ce	0.00835271
214	0xbb1208d3	-0.0022283092
215	0x3c292206	0.010323053
216	0xbc19eb57	-0.009394488
217	0x3c5954da	0.013264859
218	0x3bf3f8d8	0.007445436
219	0xbb78953a	-0.0037930743
220	0xb9d130ee	-0.00039900042
221	0xbb8c16af	-0.004275165
222	0xbb552fcb	-0.0032529708
223	0x3c50db43	0.012747589
224	0xbc3d9106	-0.011570221
225	0x39617d65	0.00021504385
226	0x3bcbad53	0.00621573
227	0x3b14d597	0.0022710317
228	0xbc21a96f	-0.009867056
229	0x3b72936e	0.0037014144
230	0xbc1558a8	-0.009115376
231	0xbbbe79af	-0.0058128457
232	0x3bd24a56	0.006417553
233	0xbc030866	-0.007997608
234	0xbb811d6b	-0.0039402745
235	0xbb6a384f	-0.003573913
236	0x3c006a26	0.007837808
237	0x3c10df35	0.008842279
238	0x3b47db19	0.0030495583
239	0x3bdae043	0.006679566
240	0x3c6fe696	0.014642378
241	0xbbee7a40	-0.007277757
242	0x3c4d2757	0.012521586
243	0xbbd72f5b	-0.0065669245
244	0xbbe5f417	-0.007017623
245	0xbbe92f25	-0.007116216
246	0x3b2a81a8	0.0026017223
247	0x3c34f5b8	0.011044912
248	0xbbd5f440	-0.006529361
249	0xbaa7b84a	-0.0012796011
250	0x3c2413cc	0.010014486
251	0x3b8e1b7b	0.004336772
252	0xbb2ac2d0	-0.0026056059
253	0x3bbf7a6f	0.0058434526
254	0xbc04534c	-0.0080765
255	0x3a5c338e	0.0008400016

fc1.bias f4 [10]
0	0x3ba7fcbf	0.005126565
1	0xbc588f6d	-0.013217789
2	0x3c8733a8	0.016504124
3	0xbc11eb3e	-0.008906184
4	0x3cb197a1	0.021678748
5	0xbc044d80	-0.008075118
6	0x3c008c48	0.007845946
7	0xba5ef028	-0.0008504414
8	0xbb83839a	-0.004013491
9	0xbc458c3a	-0.012057358
